Namespace(accum_iter=1, act_type='relu', affine_condition_on_time=False, alpha=0.02, batch_size=256, device=0, hidden_channels=512, k=256, log_steps=50, lr=0.1, min_lr=0.0001, momentum=0.9, norm_type='bn', num_epochs=50, num_layers=5, opt='adam', resolution=32, test_batch_size=128, time_dependent=False, warmup_steps=1000, weight_decay=0.001)
DiffusionEF(
  (net): SongUNet(
    (map_noise): PositionalEmbedding()
    (map_label): Linear()
    (map_augment): Linear()
    (map_layer0): Linear()
    (map_layer1): Linear()
    (enc): ModuleDict(
      (32x32_conv): Conv2d()
      (32x32_block0): UNetBlock(
        (norm0): GroupNorm()
        (conv0): Conv2d()
        (affine): Linear()
        (norm1): GroupNorm()
        (conv1): Conv2d()
        (skip): Conv2d()
      )
      (32x32_block1): UNetBlock(
        (norm0): GroupNorm()
        (conv0): Conv2d()
        (affine): Linear()
        (norm1): GroupNorm()
        (conv1): Conv2d()
      )
      (32x32_block2): UNetBlock(
        (norm0): GroupNorm()
        (conv0): Conv2d()
        (affine): Linear()
        (norm1): GroupNorm()
        (conv1): Conv2d()
      )
      (32x32_block3): UNetBlock(
        (norm0): GroupNorm()
        (conv0): Conv2d()
        (affine): Linear()
        (norm1): GroupNorm()
        (conv1): Conv2d()
      )
      (16x16_down): UNetBlock(
        (norm0): GroupNorm()
        (conv0): Conv2d()
        (affine): Linear()
        (norm1): GroupNorm()
        (conv1): Conv2d()
        (skip): Conv2d()
      )
      (16x16_block0): UNetBlock(
        (norm0): GroupNorm()
        (conv0): Conv2d()
        (affine): Linear()
        (norm1): GroupNorm()
        (conv1): Conv2d()
        (norm2): GroupNorm()
        (qkv): Conv2d()
        (proj): Conv2d()
      )
      (16x16_block1): UNetBlock(
        (norm0): GroupNorm()
        (conv0): Conv2d()
        (affine): Linear()
        (norm1): GroupNorm()
        (conv1): Conv2d()
        (norm2): GroupNorm()
        (qkv): Conv2d()
        (proj): Conv2d()
      )
      (16x16_block2): UNetBlock(
        (norm0): GroupNorm()
        (conv0): Conv2d()
        (affine): Linear()
        (norm1): GroupNorm()
        (conv1): Conv2d()
        (norm2): GroupNorm()
        (qkv): Conv2d()
        (proj): Conv2d()
      )
      (16x16_block3): UNetBlock(
        (norm0): GroupNorm()
        (conv0): Conv2d()
        (affine): Linear()
        (norm1): GroupNorm()
        (conv1): Conv2d()
        (norm2): GroupNorm()
        (qkv): Conv2d()
        (proj): Conv2d()
      )
      (8x8_down): UNetBlock(
        (norm0): GroupNorm()
        (conv0): Conv2d()
        (affine): Linear()
        (norm1): GroupNorm()
        (conv1): Conv2d()
        (skip): Conv2d()
      )
      (8x8_block0): UNetBlock(
        (norm0): GroupNorm()
        (conv0): Conv2d()
        (affine): Linear()
        (norm1): GroupNorm()
        (conv1): Conv2d()
      )
      (8x8_block1): UNetBlock(
        (norm0): GroupNorm()
        (conv0): Conv2d()
        (affine): Linear()
        (norm1): GroupNorm()
        (conv1): Conv2d()
      )
      (8x8_block2): UNetBlock(
        (norm0): GroupNorm()
        (conv0): Conv2d()
        (affine): Linear()
        (norm1): GroupNorm()
        (conv1): Conv2d()
      )
      (8x8_block3): UNetBlock(
        (norm0): GroupNorm()
        (conv0): Conv2d()
        (affine): Linear()
        (norm1): GroupNorm()
        (conv1): Conv2d()
      )
    )
    (dec): ModuleDict(
      (8x8_in0): UNetBlock(
        (norm0): GroupNorm()
        (conv0): Conv2d()
        (affine): Linear()
        (norm1): GroupNorm()
        (conv1): Conv2d()
        (norm2): GroupNorm()
        (qkv): Conv2d()
        (proj): Conv2d()
      )
      (8x8_in1): UNetBlock(
        (norm0): GroupNorm()
        (conv0): Conv2d()
        (affine): Linear()
        (norm1): GroupNorm()
        (conv1): Conv2d()
      )
      (8x8_block0): UNetBlock(
        (norm0): GroupNorm()
        (conv0): Conv2d()
        (affine): Linear()
        (norm1): GroupNorm()
        (conv1): Conv2d()
        (skip): Conv2d()
      )
      (8x8_block1): UNetBlock(
        (norm0): GroupNorm()
        (conv0): Conv2d()
        (affine): Linear()
        (norm1): GroupNorm()
        (conv1): Conv2d()
        (skip): Conv2d()
      )
      (8x8_block2): UNetBlock(
        (norm0): GroupNorm()
        (conv0): Conv2d()
        (affine): Linear()
        (norm1): GroupNorm()
        (conv1): Conv2d()
        (skip): Conv2d()
      )
      (8x8_block3): UNetBlock(
        (norm0): GroupNorm()
        (conv0): Conv2d()
        (affine): Linear()
        (norm1): GroupNorm()
        (conv1): Conv2d()
        (skip): Conv2d()
      )
      (8x8_block4): UNetBlock(
        (norm0): GroupNorm()
        (conv0): Conv2d()
        (affine): Linear()
        (norm1): GroupNorm()
        (conv1): Conv2d()
        (skip): Conv2d()
      )
      (16x16_up): UNetBlock(
        (norm0): GroupNorm()
        (conv0): Conv2d()
        (affine): Linear()
        (norm1): GroupNorm()
        (conv1): Conv2d()
        (skip): Conv2d()
      )
      (16x16_block0): UNetBlock(
        (norm0): GroupNorm()
        (conv0): Conv2d()
        (affine): Linear()
        (norm1): GroupNorm()
        (conv1): Conv2d()
        (skip): Conv2d()
      )
      (16x16_block1): UNetBlock(
        (norm0): GroupNorm()
        (conv0): Conv2d()
        (affine): Linear()
        (norm1): GroupNorm()
        (conv1): Conv2d()
        (skip): Conv2d()
      )
      (16x16_block2): UNetBlock(
        (norm0): GroupNorm()
        (conv0): Conv2d()
        (affine): Linear()
        (norm1): GroupNorm()
        (conv1): Conv2d()
        (skip): Conv2d()
      )
      (16x16_block3): UNetBlock(
        (norm0): GroupNorm()
        (conv0): Conv2d()
        (affine): Linear()
        (norm1): GroupNorm()
        (conv1): Conv2d()
        (skip): Conv2d()
      )
      (16x16_block4): UNetBlock(
        (norm0): GroupNorm()
        (conv0): Conv2d()
        (affine): Linear()
        (norm1): GroupNorm()
        (conv1): Conv2d()
        (skip): Conv2d()
        (norm2): GroupNorm()
        (qkv): Conv2d()
        (proj): Conv2d()
      )
      (32x32_up): UNetBlock(
        (norm0): GroupNorm()
        (conv0): Conv2d()
        (affine): Linear()
        (norm1): GroupNorm()
        (conv1): Conv2d()
        (skip): Conv2d()
      )
      (32x32_block0): UNetBlock(
        (norm0): GroupNorm()
        (conv0): Conv2d()
        (affine): Linear()
        (norm1): GroupNorm()
        (conv1): Conv2d()
        (skip): Conv2d()
      )
      (32x32_block1): UNetBlock(
        (norm0): GroupNorm()
        (conv0): Conv2d()
        (affine): Linear()
        (norm1): GroupNorm()
        (conv1): Conv2d()
        (skip): Conv2d()
      )
      (32x32_block2): UNetBlock(
        (norm0): GroupNorm()
        (conv0): Conv2d()
        (affine): Linear()
        (norm1): GroupNorm()
        (conv1): Conv2d()
        (skip): Conv2d()
      )
      (32x32_block3): UNetBlock(
        (norm0): GroupNorm()
        (conv0): Conv2d()
        (affine): Linear()
        (norm1): GroupNorm()
        (conv1): Conv2d()
        (skip): Conv2d()
      )
      (32x32_block4): UNetBlock(
        (norm0): GroupNorm()
        (conv0): Conv2d()
        (affine): Linear()
        (norm1): GroupNorm()
        (conv1): Conv2d()
        (skip): Conv2d()
      )
      (32x32_aux_norm): GroupNorm()
      (32x32_aux_conv): Conv2d()
    )
  )
  (norm_Silu): Sequential(
    (0): BatchNorm2d(3, eps=1e-05, momentum=0.1, affine=True, track_running_stats=True)
    (1): SiLU()
  )
  (mlp): Sequential(
    (0): Linear(in_features=3072, out_features=1024, bias=True)
    (1): BatchNorm1d(1024, eps=1e-05, momentum=0.1, affine=True, track_running_stats=True)
    (2): ReLU()
    (3): Linear(in_features=1024, out_features=1024, bias=True)
    (4): BatchNorm1d(1024, eps=1e-05, momentum=0.1, affine=True, track_running_stats=True)
    (5): ReLU()
    (6): Linear(in_features=1024, out_features=1024, bias=True)
    (7): BatchNorm1d(1024, eps=1e-05, momentum=0.1, affine=True, track_running_stats=True)
    (8): ReLU()
    (9): Linear(in_features=1024, out_features=1024, bias=True)
    (10): BatchNorm1d(1024, eps=1e-05, momentum=0.1, affine=True, track_running_stats=True)
    (11): ReLU()
    (12): Linear(in_features=1024, out_features=1024, bias=True)
    (13): BatchNorm1d(1024, eps=1e-05, momentum=0.1, affine=True, track_running_stats=True)
    (14): ReLU()
    (15): Linear(in_features=1024, out_features=1024, bias=True)
    (16): BatchNorm1d(1024, eps=1e-05, momentum=0.1, affine=True, track_running_stats=True)
    (17): ReLU()
    (18): Linear(in_features=1024, out_features=1024, bias=True)
    (19): BatchNorm1d(1024, eps=1e-05, momentum=0.1, affine=True, track_running_stats=True)
    (20): ReLU()
    (21): Linear(in_features=1024, out_features=1024, bias=True)
    (22): BatchNorm1d(1024, eps=1e-05, momentum=0.1, affine=True, track_running_stats=True)
    (23): ReLU()
    (24): Linear(in_features=1024, out_features=1024, bias=True)
    (25): BatchNorm1d(1024, eps=1e-05, momentum=0.1, affine=True, track_running_stats=True)
    (26): ReLU()
    (27): Linear(in_features=1024, out_features=1024, bias=True)
    (28): BatchNorm1d(1024, eps=1e-05, momentum=0.1, affine=True, track_running_stats=True)
    (29): ReLU()
    (30): Linear(in_features=1024, out_features=1024, bias=True)
    (31): BatchNorm1d(1024, eps=1e-05, momentum=0.1, affine=True, track_running_stats=True)
    (32): ReLU()
    (33): Linear(in_features=1024, out_features=1024, bias=True)
    (34): BatchNorm1d(1024, eps=1e-05, momentum=0.1, affine=True, track_running_stats=True)
    (35): ReLU()
    (36): Linear(in_features=1024, out_features=1024, bias=True)
    (37): BatchNorm1d(1024, eps=1e-05, momentum=0.1, affine=True, track_running_stats=True)
    (38): ReLU()
    (39): Linear(in_features=1024, out_features=1024, bias=True)
    (40): BatchNorm1d(1024, eps=1e-05, momentum=0.1, affine=True, track_running_stats=True)
    (41): ReLU()
    (42): Linear(in_features=1024, out_features=1024, bias=True)
    (43): BatchNorm1d(1024, eps=1e-05, momentum=0.1, affine=True, track_running_stats=True)
    (44): ReLU()
    (45): Linear(in_features=1024, out_features=1024, bias=True)
    (46): BatchNorm1d(1024, eps=1e-05, momentum=0.1, affine=True, track_running_stats=True)
    (47): ReLU()
    (48): Linear(in_features=1024, out_features=1024, bias=True)
    (49): BatchNorm1d(1024, eps=1e-05, momentum=0.1, affine=True, track_running_stats=True)
    (50): ReLU()
    (51): Linear(in_features=1024, out_features=512, bias=True)
    (52): BatchNorm1d(512, eps=1e-05, momentum=0.1, affine=True, track_running_stats=True)
    (53): ReLU()
  )
  (head): Linear(in_features=512, out_features=256, bias=True)
  (online_clf_head): Linear(in_features=256, out_features=10, bias=True)
)
